ckpt.pth (torch, 209832 bytes, 86 tensors)

module.conv1.weight f4 [4, 3, 3, 3]
00000000: 54e6 75bd d92c ecbd ca39 613c 7c9a 6e3d
00000010: b040 2dbe bac6 573d 6707 1a3d bf5e f43d
00000020: 68db 9aba 9ddc 173e e595 e0bd ba28 c2bd
00000030: 789b 333e 6f88 c8bd c51a a63d ceb7 563c
00000040: 4877 483e 30e0 8dbe aee7 12be d265 233e
00000050: ff6b e4bc 9904 76bb c9d0 353e 575a 57be
00000060: cf81 7c3d 1d58 663e 174a ffbd 95a7 94bd
00000070: f490 343d 1881 31be 9fb2 50be 1336 223e
00000080: c8db 2dbe 6a76 2dbd d2f1 323d ca94 093e
00000090: 3060 663a 1a51 503e f15d aabd 8bc6 273e
000000a0: e315 12bc 9387 fd3c 54af e63d d392 e63d
000000b0: a70c 343d 83a1 3c3d 48ea acbb 8a3a 213d
000000c0: 4ecc 08be 7899 fa3d 61d6 45be 3afe 0bbe
000000d0: d114 1fbe 5051 a73d ea98 3b3d b0f3 c13d
000000e0: 2971 803d 8304 df3b c4e5 67bc 668a d13d
000000f0: 6c10 05be 1315 0cbd 3d9b 41bd 7eca 01bd
00000100: 62ee 14be 1a79 243e 888d 2abd 06d6 3abe
00000110: f9b3 c23c 7f66 523d e828 113c 1771 143d
00000120: dd6c dcbd 5982 17bd d7d1 e23d 277f 133e
00000130: 4676 00be 80a0 e9bc 65fe 61bc ad43 03be
00000140: 5221 143e 1080 68bc 77ec 083e bfad 183d
00000150: a57b 12bb 2940 643d 26af 84be a242 0bbd
00000160: 86a8 c4bd 5f28 21be 8195 173d fd92 503e
00000170: d546 413e f296 0bbe da98 1cbe 1cab aabd
00000180: b3f8 3fbd 1322 5e3d d3c4 b6bd 3108 f73d
00000190: 0ddf 5e3e 815e c53d 0e97 0ebe 9958 b7bd
000001a0: 5cc5 87bd f740 173e 1d00 d63c 9495 22bc
-0.06003411 -0.115319915 0.013746688 0.058252797 -0.16919208 0.052679755 0.037604716 0.11932134
-0.0011814656 0.14830251 -0.1096609 -0.09480424 0.17539775 -0.09791648 0.08110575 0.013105346
0.19576752 -0.27710104 -0.14346191 0.1595681 -0.027883528 -0.0037539362 0.17755426 -0.21030556
0.061647233 0.2249455 -0.124653034 -0.07258526 0.04408355 -0.17334402 -0.20380639 0.1584094
-0.16978371 -0.042349257 0.04368765 0.13435665 0.0008788137 0.20343438 -0.08318699 0.16384332
-0.008916351 0.030948436 0.1126391 0.11258473 0.04395738 0.046052467 -0.005276952 0.039362468
-0.13359186 0.12236303 -0.1932006 -0.13671198 -0.15535285 0.08169806 0.045800127 0.09470308
0.062715836 0.0068059578 -0.0141539015 0.102314755 -0.12994546 -0.034199785 -0.047267187 -0.031687252
-0.14544061 0.16061822 -0.04163888 -0.18245706 0.023767458 0.05136728 0.0088598505 0.036240663
-0.107629515 -0.036989544 0.1107518 0.14403974 -0.12545118 -0.028518915 -0.013793563 -0.12818785
0.14465836 -0.014190689 0.13371454 0.037275072 -0.002235153 0.05572525 -0.25914878 -0.033999093
-0.09602456 -0.15738057 0.037007812 0.20368572 0.18874677 -0.136318 -0.15292683 -0.08333418
-0.046868037 0.054231714 -0.0892426 0.12062109 0.21764775 0.09637166 -0.1392481 -0.089524455
-0.0662944 0.14770876 0.0261231 -0.0099233575

module.layer1.0.bn1.weight f4 [4]
00000000: 11dd 403f b415 563f 36c3 723f 80ea 643f
0.7533732 0.83626866 0.9482912 0.8942032

module.layer1.0.bn1.bias f4 [4]
00000000: dcd9 053f 61c6 393f 85cd fc3e 554e be3c
0.5228555 0.7256833 0.4937555 0.023230711

module.layer1.0.bn1.running_mean f4 [4]
00000000: 71d3 16bd 19e3 47bc 55e1 343d 78a7 103d
-0.03682274 -0.01220014 0.044160206 0.03531596

module.layer1.0.bn1.running_var f4 [4]
00000000: 289b 8d3e 6270 fa3d 571f 3d3e 3afa 203f
0.27657437 0.122284666 0.18468986 0.62881815

module.layer1.0.conv1.weight f4 [4, 4, 3, 3]
00000000: 0802 213e dc72 06be 5069 a2bd f9d4 533d
00000010: 52b1 3b3d 205d 193d cf3f b4bd df1c cdbb
00000020: 310f d2bc 3ac1 0bbd 6597 593d 70f0 88bc
00000030: 3b07 833e fa66 71be fa51 2cbd 1895 413b
00000040: f33f 2bbe f9cc 063e 6843 0a3d c409 023d
00000050: c0b3 e0bd 3f2f 1bbe d5bb 193e 2735 a43a
00000060: 443a 79bd ef49 13bc 4f73 403c ee03 703b
00000070: 928d 8dbd 27a5 93bd 48ce f93d 9e17 13be
00000080: 6f6f f03d 2902 cebd 8f88 ef3b b89a 923b
00000090: a1eb 393c 70d1 513c 1a6c d0bd a813 c6bd
000000a0: 9f31 9fbd f3af 263c 4fd2 d83d 30e9 19bd
000000b0: 90e2 d0bd 609a 373e 5ded 6ebd 58c6 2cbd
000000c0: 05bc 763d 621c 983d 70c2 6d3d 36be c7bd
000000d0: 580a 68be 30ea 5e3d 19fd 733d 3aac 5f3d
000000e0: 34fe 2c3d 18cd 06bd 13a2 2abe 16e4 3d3e
000000f0: 9d89 763d 585e fcbb f981 813e c8c3 983d
00000100: 6169 40be 0c74 593c 58a0 0bbc 8bc7 02bd
00000110: ad8e d8bd 7071 02be 26b3 4b3e 216b 033d
00000120: 0497 b03d e380 1fbe 28d1 ad3b c915 fc3d
00000130: c913 73bc dcf9 22bc 70c0 d9bd 2a82 0abd
00000140: f3da cc3d d6c3 41bd 54cf 413e e733 73bd
00000150: ef27 d63c b396 bebc c5de 883b 81ff 113d
00000160: d2f2 943d 3a13 44be 5e97 65bd 709f 18be
00000170: 4f5c 253e 2a37 82bd 3997 983c e334 1ebd
00000180: 562f 28bd d39a 4abd 1af0 e03d 4943 dd3c
00000190: 5d03 e6bd 65ac 4ebe 0d3a b4bd 095d afbd
000001a0: fb93 eabd c283 9e3d f8ba cdbc 26f4 38bd
000001b0: de8f 1cbc 102e 49bd 0cfa 50bd 518b 6b3e
000001c0: 2cb6 a5bc ac25 09be 5178 993d 669a 23bb
000001d0: 8149 d6bd 0b63 03bd e94f abbd 452f 303e
000001e0: 29ed 2b3d 7ffa c1bd cdd2 9b3c 15ca 173e
000001f0: 4f01 f0bd 0fb5 2c3c a528 1e3d e776 01be
00000200: 12e8 f83b e2e0 fcbd 82b8 393e 98dc 95bc
00000210: 6a85 6abe 7a4b 8c3e 3071 173b e020 103e
00000220: 58a8 50bd f919 dcbd 277b b33d c4e7 c33c
00000230: bba8 a5bc fb6e de3c 0e91 84bd a0ab 2cbc
0.15723431 -0.13129753 -0.07930243 0.05171678 0.045823403 0.037442327 -0.08801233 -0.006259545
-0.02564201 -0.034119822 0.053122897 -0.016716212 0.25591454 -0.23574439 -0.042070366 0.002953833
-0.16723613 0.13164128 0.03375569 0.031747594 -0.109717846 -0.15154742 0.15013058 0.0012528048
-0.060846582 -0.008989795 0.011746242 0.0036623436 -0.06911768 -0.07209235 0.12197548 -0.14364478
0.11740004 -0.10059006 0.00730998 0.0044740103 0.011347682 0.012806281 -0.10176869 -0.09671718
-0.07773136 0.0101737855 0.10586988 -0.0375759 -0.10199463 0.17929983 -0.058331836 -0.042181343
0.060237903 0.074272886 0.05804676 -0.09753077 -0.22660196 0.054422557 0.059567545 0.054607607
0.042234614 -0.032910436 -0.16663389 0.18544039 0.060189832 -0.0077016763 0.25294474 0.07459217
-0.18790199 0.013272297 -0.008522116 -0.03192858 -0.10574088 -0.12738585 0.19892558 0.032084588
0.08622554 -0.1557651 0.0053044744 0.12308843 -0.01483626 -0.009947266 -0.10632408 -0.03381554
0.10002699 -0.047305904 0.18926746 -0.05937567 0.026142089 -0.023265218 0.004176947 0.03564406
0.07272877 -0.1914796 -0.056052558 -0.1490457 0.16148494 -0.06358178 0.018626796 -0.038624655
-0.041060768 -0.049464058 0.10983296 0.027009623 -0.1123111 -0.20182951 -0.08800135 -0.08562667
-0.11454006 0.077399746 -0.025113568 -0.045154713 -0.009555785 -0.049116194 -0.051019713 0.23002364
-0.020228468 -0.13393277 0.07493652 -0.0024963855 -0.104632385 -0.032076877 -0.08364851 0.17205532
0.04197422 -0.094716065 0.019021416 0.14823182 -0.117189996 0.010541215 0.03861298 -0.12643014
0.0075960243 -0.123475805 0.1813679 -0.018293664 -0.22902456 0.27401334 0.0023108236 0.14075041
-0.050941795 -0.107471414 0.08763724 0.023914225 -0.020222059 0.027152529 -0.064729795 -0.010538965

module.layer1.0.bn2.weight f4 [4]
00000000: 64b7 8d3f eae7 5b3f e63b 623f 0cd7 7e3f
1.1071591 0.8590075 0.8837265 0.99546885

module.layer1.0.bn2.bias f4 [4]
00000000: 0c4f d43e 7cc6 b93e 1034 393e 9f5c db3d
0.41466558 0.36284244 0.18086267 0.107110254

module.layer1.0.bn2.running_mean f4 [4]
00000000: b5df 16be af3f 1e3d d474 63be 5701 363d
-0.14733775 0.038634952 -0.22212535 0.04443487

module.layer1.0.bn2.running_var f4 [4]
00000000: 90ce 233e f0e2 3a3e f6ca 203e d4f3 a03e
0.15996766 0.18250632 0.15702423 0.31436026

module.layer1.0.conv2.weight f4 [4, 4, 3, 3]
00000000: 8b15 8e3c 7394 56bd e013 cc3c 766a 0ebe
00000010: c097 633e b6eb e23d b6a2 cabd 6d7d 97bb
00000020: b9e6 373d 054f a6bc cd53 03be 3e53 00bd
00000030: aa9c d33d 4799 f7bd 87cf b33d 4e4e 8ebc
00000040: 888b fd3d e6a5 b8bd 31e4 653c c13b 4c3e
00000050: ec85 39bd 3b72 3fbe 174b a43c 6081 513d
00000060: d2a0 5bbd ab8d f63d e54e 17bd ccdb 0bbe
00000070: fe82 f03d 9ac3 7abd 0fb4 163d 13fa 463e
00000080: 309f 5dbd 4141 69bd 8606 423e c519 e1bd
00000090: a231 193e 8abc 9bbd a598 12bd f020 983d
000000a0: 892c 25bd 82be 053e cc53 8abc f8fa eb3d
000000b0: db72 6a3c b4f4 21bd db98 3abd a3db 02be
000000c0: b2de 88bc acde 423e 6b33 6abd b6c5 483d
000000d0: a42e cc3d 0d9b ee3d 2c26 23bd e797 113e
000000e0: 2104 473d 1ab0 7db9 df81 383d f36c 993d
000000f0: 989e b1bc 24e9 393e bd75 17bd f8c5 79bd
00000100: 832d f93d 0475 26bd 7362 cf3d 1fba 793c
00000110: f592 2cbe 42b8 25bd 90f2 20be 84db f4bd
00000120: 5eb4 2abd eb62 6bbd 097a 373d 433c 85bd
00000130: 5838 673e fc3f 64be 0606 ba3a 3ba3 903e
00000140: 3f1e 87be 74ab 28bd 017a 5c3d ba6a 25be
00000150: ddad 43bc 5ddb c33d aeff 64bd 0af3 943d
00000160: fea3 0fbe 20ef bb3d 1795 aebd 5eb0 163e
00000170: 4c2c a73d f110 fd3d 1ec5 bd3d 7eda b1bd
00000180: f5f9 ad3b 9ef0 b43c 3460 f5bc 1cca babc
00000190: 05b2 00be 5609 53bc b3c6 5f3e c546 8c3e
000001a0: 033d a73d 711c 973d 7369 a03d 3a83 7c3c
000001b0: a6b6 253e aa1d 5cbd 1103 823d 2838 1f3e
000001c0: 404e 9b3c ddae 07bc 2070 cdbd 8ab5 e93c
000001d0: e2c1 e93d f8f1 e83d 3d75 363e 47dc aabb
000001e0: 96c6 36bd 45fe f1bb bd75 703d 7bd8 cbbc
000001f0: d7f8 8a3d 10c7 3fbc 9565 e1bc bd66 d43d
00000200: aa13 573d 9e31 b3bd 222b a03d cf47 b9bd
00000210: def5 bebd 1b17 b33c 3cc4 1e3b 3a9a d33c
00000220: 8074 a2bd d66e 25be f058 163e 86c0 b5bc
00000230: 8a1f a0bc a149 b43c b720 0e3c 62dd 813d
0.017344257 -0.052387666 0.02491182 -0.13907799 0.22225857 0.110801145 -0.09894316 -0.004623106
0.04489777 -0.020301351 -0.12824936 -0.031329386 0.10332616 -0.12089782 0.08779817 -0.017371323
0.12380129 -0.090160176 0.014031456 0.1994467 -0.045293733 -0.18695919 0.020055337 0.051148772
-0.053620167 0.1203874 -0.036940474 -0.13658065 0.11743735 -0.061221696 0.03679281 0.19431333
-0.05410689 -0.056946997 0.18947801 -0.10991243 0.1496034 -0.0760432 -0.035790104 0.07428157
-0.040325675 0.13060954 -0.01688566 0.11522478 0.01430961 -0.039540008 -0.04555593 -0.12779097
-0.016707752 0.19030255 -0.057177942 0.049016677 0.099698335 0.11650667 -0.039831325 0.14218102
0.048587922 -0.00024193563 0.04504573 0.074914835 -0.021682069 0.18155342 -0.03697752 -0.060979813
0.12166884 -0.04063894 0.101261996 0.015242129 -0.16852935 -0.040458925 -0.1571753 -0.11955932
-0.041675918 -0.057467382 0.044794116 -0.06505635 0.22580087 -0.22290033 0.0014192469 0.28249535
-0.26390263 -0.041179135 0.05382729 -0.16153994 -0.011943308 0.095633246 -0.055907898 0.072729185
-0.14027402 0.09176469 -0.085245304 0.14715716 0.08162746 0.12356747 0.09266113 -0.08684252
0.005309338 0.022087391 -0.0299531 -0.022801451 -0.12567909 -0.012880644 0.21853141 0.27397743
0.08165934 0.07378472 0.07832613 0.015412146 0.16182956 -0.053739227 0.06348241 0.15548766
0.018958211 -0.008281437 -0.10031152 0.028528947 0.11413933 0.11374277 0.1781816 -0.0052142474
-0.04462298 -0.0073850476 0.058706034 -0.0248835 0.06785744 -0.011705175 -0.027514258 0.10371158
0.052508987 -0.08749698 0.07820727 -0.090468995 -0.09324239 0.021861603 0.0024225852 0.025830377
-0.07932377 -0.16155562 0.14682364 -0.022186529 -0.019546289 0.022007765 0.008674792 0.063410535

module.layer1.1.bn1.weight f4 [4]
00000000: da3b 603f 3afb 823f 8fe5 713f 5ba5 8b3f
0.87591326 1.0232918 0.94490904 1.0909837

module.layer1.1.bn1.bias f4 [4]
00000000: 9550 c53c ab1e 8a3e 80f6 803b faf0 dabd
0.024086276 0.26976523 0.003935635 -0.10690494

module.layer1.1.bn1.running_mean f4 [4]
00000000: a315 c93d a824 9b3e f8d0 853e bc8e c03e
0.0981858 0.30301404 0.26135993 0.37608898

module.layer1.1.bn1.running_var f4 [4]
00000000: 7cd7 d73e 84df 823e 8ea4 673f 9697 683f
0.4215659 0.25561154 0.90485466 0.908563

module.layer1.1.conv1.weight f4 [4, 4, 3, 3]
00000000: 3b9e 043e e479 2cbd 7be7 3bbe 16d7 103e
00000010: ad6c 3a3d 2424 1c3d c197 c2bd c560 d8bc
00000020: bc72 aa3d 3009 103a 45e7 973d 0c50 37bd
00000030: b834 063e 607c 6abe 5d6c 9c3d c5ea 063e
00000040: 8f87 c3bd e95e 8bbc aed9 1b3c 45fd 0ebe
00000050: 270d 2ebe 1f53 55be 99fa 043e f530 a63d
00000060: 08bd 40bd e469 98bc 0dd6 7d3d 5b45 d7bd
00000070: b2b5 253e 2c0e c8bc 29a9 1dbe 5e2f 2b3e
00000080: 6bfe e93d 3122 ffbd fcb3 7cbd 5110 acbb
00000090: f9eb 8ebd 44ad e83d c119 c6ba b5d1 1bbe
000000a0: 2b42 bdbd 3c22 ac3d 9e34 ddbd d88f 643d
000000b0: b2e3 ed3c eccb 123e 8b13 a4bd b8ca 7e3c
000000c0: 1285 b2bc 0cd0 943d b7a6 40bc dd91 b7bd
000000d0: 85f0 723d 94af f3bc 2d80 76bc c5c9 ccbd
000000e0: f2a8 b2bd 536e f7bc 3753 a0bd 7014 2fbe
000000f0: 64cb 3cbe 27b3 c4bd f62e b53d 48a1 643b
00000100: 39d0 3d3d 4e0b f63c 889a b9bd 49d5 00bd
00000110: 0e02 dd3d 765b c63c c053 083e 00ee a9bd
00000120: 5339 1c3d defd fc3d 8f8c b4bd 3a82 d83b
00000130: 955b 97bc 1845 b0bd e9d0 a53d 9534 713d
00000140: 6365 a8bb 774a 4a3d 0c36 563e 1d47 923d
00000150: 84f1 0f3e af21 723d 291f 83bc 7c97 ce3d
00000160: 8708 e23c 1855 0c3a 02b7 f2ba 440d 22bd
00000170: 0af2 db3c 1989 4abd 48bc 9a3d 781a 93ba
00000180: 530e c13c 4325 a5bd 678d c73d 6343 023c
00000190: 31ca 7a3d 1359 ce3d 1bcf 193e 18c0 8b3e
000001a0: 9538 2e3e 2b20 10bd 0649 323c 534a 08bd
000001b0: 01ec 0dbe e08b 663d 3684 20bc 43c5 10bb
000001c0: cc82 9f3c 87bd bf3d 264b 153e 1427 853d
000001d0: f5cc 7b3c 4b7d f6bc 04d8 c83c 3260 00bd
000001e0: 16d9 853c 4cb8 913d ba56 98ba 800a 343b
000001f0: 386a 203e 76ab a93d e36f 7cbd 053c 7e3c
00000200: a944 0dbd 48d9 243d 9d67 43be b9ff 35bd
00000210: ca99 013d 82d2 a8bc e176 25be 18b7 993d
00000220: 6835 fe3d 5838 a03d 40c2 53bc 022b 35be
00000230: d01c 3ebe a587 8f3d b4d5 863d 36ca 8abc
0.12950985 -0.04210843 -0.18350022 0.14144549 0.045513798 0.038120404 -0.09501601 -0.02641333
0.08322665 0.0005494533 0.07417158 -0.044754073 0.13106048 -0.22899008 0.07637856 0.13175495
-0.0954734 -0.01701303 0.009512348 -0.13963802 -0.16997205 -0.2083249 0.1298622 0.081148066
-0.047055274 -0.01860518 0.061971713 -0.105112754 0.16182593 -0.02442082 -0.1539656 0.16717288
0.114254795 -0.12457693 -0.061695084 -0.0052509685 -0.06978602 0.11361173 -0.0015113876 -0.15216716
-0.09241136 0.08404967 -0.108010516 0.055801243 0.029039238 0.14335603 -0.0801154 0.015551262
-0.021791968 0.07266244 -0.011758498 -0.08963368 0.05931141 -0.029746808 -0.015045208 -0.09999422
-0.0872363 -0.030203974 -0.07828372 -0.1709764 -0.18436962 -0.09604483 0.08846848 0.003488617
0.046341155 0.030034687 -0.090626776 -0.031453405 0.107914075 0.024213534 0.13313198 -0.08297348
0.038140606 0.12353109 -0.08815872 0.006607321 -0.018476287 -0.086069286 0.08096487 0.058888037
-0.0051390394 0.04938742 0.20919055 0.0714247 0.14056975 0.059114154 -0.01600607 0.10087487
0.027591957 0.0005353256 -0.0018517675 -0.039563432 0.026848812 -0.049447153 0.07555443 -0.0011223098
0.0235664 -0.08063748 0.09743767 0.007950637 0.06122798 0.10075583 0.1502041 0.27294993
0.17013772 -0.035186928 0.010881668 -0.033274006 -0.1385956 0.05628574 -0.009797147 -0.0022090233
0.019471548 0.09362321 0.14579448 0.06501594 0.01536869 -0.030089041 0.024517067 -0.03134174
0.016338866 0.0711523 -0.0011622526 0.0027472079 0.15665519 0.08284657 -0.06163014 0.015517239
-0.034489308 0.040246278 -0.19082494 -0.04443333 0.031640805 -0.02060819 -0.1615863 0.075056255
0.1241253 0.07823247 -0.012924731 -0.17692187 -0.18565679 0.07008294 0.065837294 -0.016942125

module.layer1.1.bn2.weight f4 [4]
00000000: f7cb 5c3f c36a 813f 92e9 683f 85b6 6e3f
0.86248726 1.0110706 0.909814 0.9324725

module.layer1.1.bn2.bias f4 [4]
00000000: 3687 06be 35b9 223e 8950 b2be 7c87 163e
-0.13137516 0.15890963 -0.34827068 0.1470012

module.layer1.1.bn2.running_mean f4 [4]
00000000: 8564 02bd 8cd0 17be e984 1a3f 40f4 db3d
-0.031834144 -0.14825648 0.60359055 0.10739946

module.layer1.1.bn2.running_var f4 [4]
00000000: 9978 da3d e4af 063e f267 723e 101c 133e
0.106675334 0.13153034 0.23672464 0.14366174

module.layer1.1.conv2.weight f4 [4, 4, 3, 3]
00000000: 55b2 2a3d 816a ea3d e0bf 8a3c 8cad f4bd
00000010: de49 033e ca64 183d ca87 753c 4721 793d
00000020: edd1 a6bc fbbe 253e 7c59 27be 7245 85bd
00000030: 6aa0 463d 098f 973c 2b29 5b3d bc7f d2bd
00000040: eaab 8f3c 0d08 5c3d 4b95 af3c cfde 09bd
00000050: ee38 13be a2e0 23bd 4bb7 8cbd c6df afbd
00000060: 8772 313d 2614 3d3d 8947 303c 9700 00be
00000070: 6b85 b43d cebf 0dbd 435f f5bc 4976 1cbe
00000080: c608 8c3d e8e8 16bd a0d3 ff3b 612b 5fbd
00000090: 8123 30bd d857 70bd bb80 f13d 2ce0 9bbb
000000a0: 8d85 df3c d803 1a3d 4a47 e33d 131f 82bd
000000b0: 3412 d6bd cdd0 2e3d fc39 393c 40ef febc
000000c0: 3419 03bd b8d0 af3c e383 febd aff9 313d
000000d0: a780 4cbe 5524 8a3d 284b 02be b042 9b3d
000000e0: 6771 d8bc 43b2 bebd 036b 583e f943 b93d
000000f0: cdcf 11be e583 313e b55d 113e 715e b2bd
00000100: 0787 84bd 1fe4 ca3d 484b 8b3d 002a 20be
00000110: 8a3b f0bd bb1f 053e 5f47 afbd 7758 6d3d
00000120: 9f50 153d c36f c33d e685 a33d 1148 763d
00000130: 4573 483e 0379 223e a00b 33bd f725 183e
00000140: 8659 37bc d005 903d 2f5c 0dbe e412 cabd
00000150: 0195 fdb8 1d9e d4be 0b6e 5dbd 103f f5bc
00000160: 244c 75be 3789 8cbd 730a b33d 8f0b c3bc
00000170: caf4 37bd 450f ccbd b9e4 883d 2a97 a23b
00000180: 6b39 d73c 5dd0 8fbd 31f6 23bd 0eac a63c
00000190: 276d 853d 890b cbbc df05 0cbc 5714 03be
000001a0: 74e4 bf3c a007 f9bc c951 49be 644c b53c
000001b0: ad70 153d 8e90 2f3e 78fe ff3c 53b8 0bbd
000001c0: 0c47 edbc 5679 bc3c 458a 533d a8ea 463d
000001d0: 161b 8ebc 6d22 3abc 50c0 9fbd b2e7 37bd
000001e0: 0ae5 9e38 a38e 2ebe 6ba6 a2bd 1e00 75bd
000001f0: 6664 3d3d e1b0 5fbd 7fb2 173d c417 153d
00000200: 1f65 ed3c 7d6b fdbd 4708 febc def0 2ebe
00000210: cfd2 87bd 58b4 083e 1922 37be 440c 4c3d
00000220: 6e7c 083e 3875 f83d 6188 2e3d 607f 243b
00000230: 2a35 aa3d 3021 89bd a6b8 163e e065 8bbd
0.041673977 0.11446095 0.016937196 -0.11947164 0.12821147 0.037205495 0.014985988 0.06082275
-0.020363772 0.16186135 -0.1634273 -0.06507386 0.048492827 0.018500822 0.053506058 -0.1027827
0.01753803 0.053718615 0.021433493 -0.033659752 -0.14377186 -0.04000915 -0.06870898 -0.08587603
0.043322112 0.046161793 0.010759243 -0.12500225 0.0881451 -0.034606747 -0.02995265 -0.15279497
0.06837611 -0.03684321 0.00780721 -0.05448473 -0.04300261 -0.058677524 0.117921315 -0.004756948
0.027285362 0.037601322 0.11097582 -0.06353583 -0.10452691 0.042679597 0.011305328 -0.031119943
-0.032006457 0.02146183 -0.12427499 0.043451007 -0.19970952 0.06745211 -0.12723982 0.07581079
-0.026421262 -0.093113445 0.21134572 0.09046168 -0.14239426 0.1733547 0.14195903 -0.087094195
-0.06471067 0.09906792 0.06801468 -0.15641022 -0.11730106 0.13000385 -0.08558535 0.057945695
0.03645384 0.09542801 0.079845235 0.06012732 0.19575222 0.15866475 -0.04371226 0.14858232
-0.011190778 0.07032359 -0.13804697 -0.09866884 -0.00012091734 -0.4152688 -0.054060023 -0.029937297
-0.23954827 -0.06862109 0.087422274 -0.023809223 -0.044911183 -0.0996385 0.066842504 0.004961868
0.026272496 -0.07022164 -0.04002971 0.020345714 0.0651496 -0.024785774 -0.008546322 -0.12800728
0.023424365 -0.030399144 -0.19660105 0.022131152 0.03648441 0.17144987 0.03124927 -0.034111332
-0.028964542 0.023007076 0.051645536 0.04856363 -0.0173469 -0.011360747 -0.078003526 -0.044898696
7.576689e-05 -0.17046599 -0.07941898 -0.059814565 0.046238326 -0.054612044 0.03703546 0.036399618
0.028978882 -0.123740174 -0.031009806 -0.17084071 -0.066320054 0.13350046 -0.17884101 0.049816385
0.13328716 0.12131733 0.04261053 0.0025100335 0.083109215 -0.06695783 0.14718875 -0.068065405

module.layer2.0.bn1.weight f4 [4]
00000000: 12f8 6d3f 2420 453f 2538 6f3f 81c2 703f
0.9295665 0.7700217 0.93445045 0.9404679

module.layer2.0.bn1.bias f4 [4]
00000000: 6265 dd3e e5df 183e c306 be3e 1722 523f
0.4324141 0.14929159 0.37114534 0.82083267

module.layer2.0.bn1.running_mean f4 [4]
00000000: 5c34 ba3b a103 613e 1c93 08be 9ce1 ae3e
0.0056825113 0.2197404 -0.13337368 0.341565

module.layer2.0.bn1.running_var f4 [4]
00000000: 3cb5 fc3e 9f38 c03e fcc3 b93f 6d27 393f
0.4935702 0.37543198 1.4512935 0.72325784

module.layer2.0.conv1.weight f4 [8, 4, 3, 3]
00000000: 3e61 f1bb 495a efbd 88cf 3bbe 064e a93c
00000010: 103a d93d 45bd 103e aba4 d1bb b61a d2bc
00000020: eae4 393d 30fd bcbd 8e18 95bd f19a 9e3d
00000030: d885 4f3d 926f 523e 1599 963d fde8 413c
00000040: f543 453b 6b4a 8f3c 2ebe a9bd 3b5d 0e3b
00000050: c30f 3a3d 470c 89bd c26b fabc 50d8 22be
00000060: 6509 893d 448b 1f3d ae05 c13c 81d4 0a3e
00000070: e8aa f83d e618 043d 40ea efbb a366 863d
00000080: 4be9 aa3c b815 f7bd 8567 75be ea0d 77be
00000090: 2413 ea3d 5bac 773e f8cf 693e 96ba 81bd
000000a0: 35ab c23d 3a1b 423e e9a2 bb3d b097 5cbc
000000b0: ad3f e33d 70d3 1d3d b130 193d 9735 98bd
000000c0: b707 dcbc 54e9 9e3c 80ad 49bd f167 cdbc
000000d0: 519e c73a 899f b4bc cd73 84bd 9f5b 5cbe
000000e0: 3cf2 eabd 71fb 4dbb 29b6 0fbe 37b9 d7bd
000000f0: 15be 863d 4ee4 3e3d bead c5bd 35df adbd
00000100: d0a2 f0bc 809b 713d 555a 46bd 20d0 08bd
00000110: cb6f 45be b2ef 373d 3915 b03d a0bc 03be
00000120: 57cf 9f3d 61be af3c efc4 9cbd 2795 9e3d
00000130: 8eda 3cbc a175 933d 4a35 8cbc 06c0 f73a
00000140: 1b8e 1bbb 7628 a2bb 0ea2 afbd 4b4d 04be
00000150: 467c 06bc ec1c fabb 7b42 d4bc 28c7 26bd
00000160: 0049 ecbc c724 eeb9 b46c c6bd 1179 b1bd
00000170: 6480 5abe 180d 1cbe e417 9e3b f2a2 18bd
00000180: 5b72 963d da93 d7bd 997c 65bd a7d7 4c3d
00000190: 70ad d33d ef15 cd3d a6a5 6e3d be86 543e
000001a0: ae5a ae3d 1a75 123e 10fd 863e 9b37 87bd
000001b0: 454f 223c bde8 8e3c fcd7 9ebd 8fa2 ccbd
000001c0: ea96 5cbe d29f 0fbe aa6f 26bd 49ca c7bd
000001d0: 84e8 9cbc 4dec 5f3d 2666 babd 9131 75bd
000001e0: 574e 14be e46d 38be d2c4 81be 1a2e 22be
000001f0: e5ed 1abe ffb6 62be 9f9a e0bc b4c2 04be
00000200: 49c9 fbbd 7f38 28be b769 2abd 4110 e8bc
00000210: a247 cdbd ea8b d93c cdaa 293d 0ab6 a7bd
00000220: 8ea1 18be cd51 b23b b14b 05be a709 343d
00000230: 623b 913d 1dbb 99bd ee9c 953c 97c9 ea3c
00000240: b22e cfbc 45da 10be acb6 09bd 201e 37bd
00000250: a184 7cbd f47c 25be 10df e8bc f135 74bd
00000260: 290e bc3c 5097 74bd 8d78 a73b fba2 12bd
00000270: 793d 03be e03f d2bd d9e2 0ebd e287 b7bd
00000280: b05d d4bd dcfd 44bd 5881 863e 4044 923e
00000290: 9f75 293e 7b09 2dbc 2625 083e c6ce 0c3e
000002a0: 2260 17bc 9156 bdbd 1a6d f63c 168b 883d
000002b0: 7de5 e13c 48ec f1bd 46cd a2bd 66a4 193d
000002c0: d4cf ddbb b42f 5abc 190d 95bd 620f 5bbc
000002d0: 9609 203e 25ec afbd 6aaa 9e3b 32fe f63c
000002e0: 70fe 46be bcb1 c03d 75a0 4dbd 1577 68bb
000002f0: 91a0 993d 28fc cabd 5440 a4bc f10d 8d3d
00000300: 95c5 34be 1c43 133e 1c86 73bc 5331 95bd
00000310: 7a98 393d 78d2 54bd d2c3 023e 1aa4 a93b
00000320: 043b cfbc 53ff 323d 4c4b dcbd 4d87 813c
00000330: d916 123b 59ab 843d b715 f6bd 93cb 34be
00000340: 66a4 f23d b7b4 bdbc 9b95 0dbe c4c7 363e
00000350: 79ac 00bd 9abb 31be 276c 5b3e 5cbe 16bd
00000360: 4672 f0bc cd4b 89bd 4a62 31be f231 833c
00000370: 8ba1 b73b d1b5 cbbd c25a 89bd e80f 48bb
00000380: 6ee5 733e 5a08 00be 2772 1cbe 0aef 0c3d
00000390: db67 dcbd 160f 1fbe 1fac aabd 8f8d f9bd
000003a0: bbdc b9bd dde5 a1bd 62c2 8d3c c206 3cbd
000003b0: 254e 5d3d bfed d73d a170 0c3e fb16 863d
000003c0: 9972 003e 5bae 5a3e b94b 943d df6e 063d
000003d0: ee62 1cbd cdc5 8ebd 6a88 2d3d 677b 24be
000003e0: a01d 253e e105 d23d 2dc7 153e 5212 363e
000003f0: 549f df3d 77f0 9b39 8881 5abd c88e e5bd
-0.0073663285 -0.116871424 -0.18340886 0.020667087 0.10606778 0.141347 -0.006397804 -0.025647502
0.045384325 -0.09227979 -0.07280074 0.077443965 0.050664753 0.20550373 0.07353417 0.011835334
0.003010032 0.01749154 -0.08288227 0.002172305 0.045425188 -0.06691795 -0.030568961 -0.15902829
0.06691245 0.038951173 0.023562279 0.13557626 0.12141973 0.032250308 -0.007321626 0.06562545
0.020863196 -0.120646894 -0.23965271 -0.24126402 0.11429432 0.24186842 0.2283324 -0.063344166
0.095053114 0.18955699 0.09161932 -0.0134638995 0.110961296 0.03853172 0.03739995 -0.074320965
-0.026859147 0.019398369 -0.049237728 -0.025073977 0.0015229677 -0.022048729 -0.064674 -0.21519326
-0.11471984 -0.0031430388 -0.14034332 -0.10533374 0.06579224 0.046604447 -0.09652279 -0.08489839
-0.02937451 0.058986187 -0.04842599 -0.03340161 -0.19280927 0.044906326 0.08597798 -0.12864923
0.07803219 0.021453084 -0.076547496 0.07743292 -0.011526717 0.0720017 -0.017115254 0.0018901832
-0.0023735825 -0.004948671 -0.08575831 -0.1292011 -0.00820834 -0.0076328423 -0.025910607 -0.040717274
-0.028843403 -0.000454223 -0.09688702 -0.0866567 -0.2133804 -0.1523937 0.0048246253 -0.03726477
0.0734603 -0.10526247 -0.05602703 0.05001035 0.10335815 0.10013949 0.058263443 0.20754525
0.085133895 0.14302483 0.26364946 -0.06602403 0.009906595 0.017444963 -0.077560395 -0.09991943
-0.21541944 -0.1402581 -0.040633835 -0.0975538 -0.01915384 0.054668713 -0.091015145 -0.059861723
-0.1448301 -0.1801067 -0.25345474 -0.15837899 -0.15129812 -0.2214012 -0.02741748 -0.12964898
-0.122942515 -0.16427802 -0.041604724 -0.028328063 -0.100234285 0.026555974 0.041422654 -0.08189018
-0.14905378 0.0054418803 -0.13017155 0.043954518 0.070914045 -0.07506392 0.018263306 0.028660579
-0.02529082 -0.14145763 -0.033621475 -0.044706464 -0.061649922 -0.16160947 -0.028426677 -0.059621755
0.02295597 -0.059714615 0.0051108063 -0.03579996 -0.12816419 -0.102660894 -0.034884308 -0.089614645
-0.10369432 -0.04809366 0.26270556 0.28567696 0.16548775 -0.010561342 0.13295421 0.13750753
-0.009239228 -0.09245027 0.03008132 0.066671535 0.027575249 -0.11812645 -0.07949309 0.0375103
-0.00676916 -0.013317037 -0.07277889 -0.013370367 0.15628657 -0.08589963 0.0048420923 0.030150507
-0.19432998 0.094089 -0.050201852 -0.003547137 0.07501329 -0.09911376 -0.020050205 0.06887425
-0.17653497 0.14381069 -0.014863517 -0.072847985 0.04531143 -0.05195853 0.12770012 0.005177033
-0.025296696 0.043700527 -0.10756549 0.015811587 0.002229145 0.064779945 -0.120158605 -0.17655782
0.11847763 -0.02315746 -0.13826601 0.17849642 -0.031414483 -0.1735672 0.21427976 -0.036802635
-0.029351365 -0.06703911 -0.1732265 0.016015027 0.005603974 -0.09946788 -0.06706764 -0.003052706
0.23817989 -0.12503186 -0.1527792 0.034407653 -0.10761996 -0.15533099 -0.08333611 -0.12185203
-0.09075304 -0.07905171 0.017304603 -0.045904882 0.054029603 0.10543393 0.1371484 0.06547352
0.12543716 0.21355574 0.072410055 0.03282058 -0.038180284 -0.06971321 0.042366423 -0.160627
0.16124582 0.102550276 0.14626761 0.17780426 0.10919061 0.00029743064 -0.053346187 -0.11208874

module.layer2.0.bn2.weight f4 [8]
00000000: 8b7b 7d3f e71c 823f 20cc 693f 7595 813f
00000010: a1c1 7d3f e3d6 8b3f e845 623f 309a 7d3f
0.99016637 1.016507 0.91327095 1.0123736 0.9912358 1.0924953 0.8838792 0.99063396

module.layer2.0.bn2.bias f4 [8]
00000000: cec0 6c3d 7fe1 7e3e 500a a53e 46e3 7e3e
00000010: d64f c23e 0866 60bc a610 853e ce87 2e3e
0.05780106 0.24890707 0.3223443 0.24891385 0.37951535 -0.013696201 0.25989264 0.17043993

module.layer2.0.bn2.running_mean f4 [8]
00000000: 761b 54be 4335 40bd f399 003f 3f60 9ebf
00000010: 1bdd 69be 6700 4ebd 31e6 963e fb0a e43d
-0.207136 -0.046925794 0.5023491 -1.2373122 -0.22838251 -0.050293352 0.29472497 0.11134907

module.layer2.0.bn2.running_var f4 [8]
00000000: ec50 3a3e 9374 e43e b89e 523e eec2 cb3e
00000010: 2aad 373e f26f b93e 194a 563e 50f0 303e
0.18194932 0.4462019 0.20568359 0.39797157 0.1793715 0.3621822 0.20926704 0.17279172

module.layer2.0.conv2.weight f4 [8, 8, 3, 3]
00000000: 75ef 05bb 6983 e0bd 46af bfbd e158 e5bd
00000010: 6c57 76bd 50a5 69bc 7dac efbd 6474 adbd
00000020: 252e 293d 2b44 d9bd 7537 823c c664 723c
00000030: 18a5 2f3d 4497 d33d ba86 383d 85c8 f23d
00000040: a739 0c3e 019f c93d 6b13 23bd b23a b73d
00000050: e479 e53d 4470 293d 82fb c83d 390e 1f3d
00000060: b012 a73c 6bd3 19bc 2887 a13d 24d7 76bd
00000070: 0dac f03c 709a 29be a590 31bd c7f9 ca3d
00000080: cce6 d5bd e61d 11bc 59d5 0dbc 1245 13bd
00000090: 60de 93bd 64a3 3b3c 5432 0b3c f947 af3d
000000a0: 0461 fd3c 55f9 f13d 7f78 0d3e b5ad 21bd
000000b0: 076e f5bb 3d5a 5a3b 80f9 1fbd 798d d7bc
000000c0: fe85 41bd 302e c33d 6a40 b3bd 7f53 8dbd
000000d0: c1ee cbbd eb2a cdbd afcd 93bd e9bc d33d
000000e0: e651 013d 80e5 e73c eacf ea3b 9960 11bd
000000f0: f773 74bd 046e c83d e70c cbbc 0979 21bd
00000100: df72 14be 4967 69bc 2234 c13c e86f b9be
00000110: 66d8 cfbd 698b cd3d 9c98 29be 7c8b ecbc
00000120: 6f79 c7bd 8339 c1ba f182 7a3d e206 d03d
00000130: 25a7 f73b e312 cdbc bfc8 0cbd 4979 d93b
00000140: 667c d23d a407 c93c 75a1 2b3c c838 6dbd
00000150: 85eb acbb 2a9d 23bd 1ef1 183e bbda 513d
00000160: 2558 183e 68da 8ebd 15dd 18bc 594e d2bb
00000170: fa0f 14bd b2a9 963d 39e2 f7bd 48bb 873c
00000180: 4f5e ebbd 1dc7 adbd 098f 9d3c 51b3 2e3c
00000190: 0e16 5f3b c9c7 ad3c aba2 51bc 2569 23bc
000001a0: 6ce0 cbbd 18d1 c43c e66b f0bb 59b7 59bd
000001b0: d82c 173d 9517 943d 038d 303d 21a3 38bd
000001c0: 27be 4b3d da14 34be 2da4 8cbb 23bb fc3c
000001d0: 56ca da3d c93f febc 15ea 4c3c d896 aebd
000001e0: ee7c 393c e035 25be dcba 9cbc ef1c 413c
000001f0: f775 38bc 218a 813c 44f0 6e3d b496 f4ba
00000200: 7431 a1bc da00 1bbd c8b3 e23d fcfc e53d
00000210: b5db ae3d ced0 74bc 3fb0 c73c f718 993c
00000220: 2e7e 2b3d 83f0 163d 51a8 3ebd bb89 2d3e
00000230: 4acf dc3d 15a7 f93c 0327 283d 7c35 2fbe
00000240: ec23 a73d 0f7a 0e3e 6962 923d cd15 523e
00000250: d1f9 1abb b546 efba 1bcf 53bd 04d3 1bbe
00000260: c326 283c 6d92 583d 780e 363d abd3 dabc
00000270: 54dd 053d 45d4 233e 282f 573d 5b52 033d
00000280: 45a2 673c 6aab 2e3c 88cd e83d e2c2 0abe
00000290: 0960 15bd e1d8 3b3c 19ce cfbd a756 223d
000002a0: a8b6 88bd 22c9 24bc 928d 99bc 8c30 5c3c
000002b0: 1239 c9bd 3c89 c83d b62b 11be 9968 4b3c
000002c0: 1a25 853d b0f0 503d 3fd4 073e a10e 29bd
000002d0: be25 4b3d 1ae6 d23d f66b 02bd f22a 933d
000002e0: cb40 0d3e a9ed 03bd 8c83 693d 22c8 973d
000002f0: ed17 4e3c ecbf 25bd c03a 82bd 4333 fe3a
00000300: 75bc fbbc c38e fc3d f99d b63d c8f3 babd
00000310: dbdf a8b9 48a4 e9bb 65bc 193d 9f8d a7bd
00000320: 5319 afbc 6171 82bd dc1f 1c3d 8043 183e
00000330: 1542 9bbd f794 48bd 0509 de3c 490e 04bd
00000340: 3595 dd3d a3cc 8bbd 7bcf f63c 00d0 1f3d
00000350: 3618 78bd d398 8f3d c048 8abc d70c 75bc
00000360: d237 51bc e1ba 393c 8d13 94bc a50f 533c
00000370: c765 f53d 1450 9f3d 55ec 043d 9d38 c9b9
00000380: 7c92 f2bc 77e7 993c 0a2f a4bd e22f 9dbd
00000390: 6c08 0b3d 83d7 aabd 2622 033d bb8e 6a3d
000003a0: e572 e03d dc37 de3d d583 32bc d8ef 38bd
000003b0: 1f8d b4bc ce19 fd3c 1aaa 0d3e d1bd 0cbe
000003c0: ec1c 603c 7679 6d3b cc2b edbc 59b0 93bd
000003d0: 8fae e5bb b4db f2bd c936 3f3c 7ead 2c3e
000003e0: c851 983d acbb 9dbd 9d10 bc3d db69 223e
000003f0: 41a8 18bd 1e4d b23d 4b48 c73d ce38 16bd
-0.0020436917 -0.109625645 -0.09359603 -0.11198593 -0.060141966 -0.014260605 -0.117028214 -0.084694654
0.041303772 -0.10608705 0.015895585 0.014794534 0.042882055 0.10331586 0.04505036 0.11854652
0.13693868 0.09844781 -0.03981344 0.08946742 0.112048894 0.04136683 0.09813596 0.038831923
0.020394653 -0.009388785 0.07887107 -0.060263768 0.029378915 -0.1656282 -0.043350834 0.099109225
-0.10444412 -0.008857226 -0.008656823 -0.035954542 -0.07220149 0.01145253 0.008495886 0.085586496
0.03093005 0.118151344 0.13815497 -0.0394723 -0.007489923 0.0033317946 -0.0390563 -0.026312577
-0.047246926 0.09530294 -0.087525204 -0.06900691 -0.09957648 -0.100179516 -0.072169654 0.10338766
0.031572245 0.028307676 0.0071658986 -0.035492513 -0.059680905 0.09786609 -0.024786426 -0.03942207
-0.14496945 -0.0142458165 0.02358443 -0.3621819 -0.101486966 0.10036356 -0.16562122 -0.028875105
-0.097399585 -0.0014741871 0.06116003 0.10157563 0.007557767 -0.02503342 -0.034371134 0.006636773
0.10277633 0.024539776 0.010475506 -0.05791548 -0.0052770996 -0.039944805 0.14935729 0.05123399
0.14877374 -0.069752514 -0.009330054 -0.006418031 -0.03614805 0.073565856 -0.121036954 0.016568795
-0.11492597 -0.084852435 0.019233244 0.01066287 0.0034040245 0.021213429 -0.012795131 -0.009973799
-0.099549145 0.024025485 -0.0073370812 -0.05315337 0.036908 0.072310604 0.04310323 -0.045077447
0.04974189 -0.17586079 -0.004292032 0.030850952 0.10683124 -0.031036275 0.012506981 -0.08524865
0.011321289 -0.16133833 -0.01913207 0.011786683 -0.011258594 0.015812935 0.058334604 -0.0018660636
-0.019676901 -0.03784261 0.11069447 0.112298936 0.085379995 -0.014942361 0.024376033 0.018688662
0.04186838 0.036850464 -0.046547238 0.16947071 0.10781725 0.030475179 0.04105283 -0.17110246
0.081611484 0.13913749 0.071476765 0.20516129 -0.0023647437 -0.0018255325 -0.051711183 -0.15217215
0.010263148 0.052874018 0.044447392 -0.02671226 0.032681778 0.15998943 0.052535206 0.032060962
0.014137809 0.0106609855 0.11367327 -0.13550904 -0.03646854 0.011465282 -0.10146732 0.03963342
-0.06675464 -0.010057719 -0.018744264 0.013439309 -0.098253384 0.097918004 -0.1417683 0.012415075
0.06501217 0.051010787 0.13264559 -0.041273717 0.04959654 0.10297795 -0.03184124 0.071859255
0.13794248 -0.032209072 0.05701022 0.07411219 0.012578947 -0.040466234 -0.06358862 0.0019393939
-0.030729512 0.12331917 0.0891685 -0.09128529 -0.00032210242 -0.0071301796 0.037533183 -0.08181309
-0.02137438 -0.063692816 0.03811632 0.14869499 -0.075809635 -0.04897019 0.02710391 -0.032240186
0.108194746 -0.06826141 0.030128231 0.039016724 -0.060569964 0.07011571 -0.016880393 -0.014956675
-0.012769656 0.011336059 -0.018075729 0.012882148 0.11982303 0.077789456 0.032451946 -0.00038379888
-0.029610865 0.018787129 -0.080167845 -0.076751485 0.03394358 -0.08341887 0.03201499 0.057265025
0.109594144 0.10850498 -0.010895689 -0.045150608 -0.022039948 0.030896094 0.1383442 -0.13744284
0.0136787705 0.0036235726 -0.028951548 -0.0721137 -0.0070093344 -0.11858311 0.011670777 0.16863057
0.074374735 -0.07701811 0.09182856 0.15860693 -0.037269834 0.08706115 0.09730586 -0.036675267

module.layer2.0.shortcut.0.weight f4 [8, 4, 1, 1]
00000000: 087d 033e a2eb cfbe fd2f 11bd e7b3 2d3e
00000010: b42e f63d 41a1 90be 336a 693e e7f3 1c3f
00000020: 8468 723e 46c9 39bd c3b0 0d3e 6a3e b3be
00000030: dd4f 92be 1400 38be 1437 c7be 9a55 4b3e
00000040: 0e1e a2be 968e 86be be3c 0a3e b7ef 02be
00000050: 32f1 cb3d cd12 39be a2fa 7fbe 871d 27bf
00000060: febf 2b3d 9e44 99be e3c6 fc3e 82b5 27be
00000070: da08 ad3e dc1b 90be 3dce cdbd 73e9 06be
0.12840664 -0.4060946 -0.035446156 0.16963159 0.12020627 -0.28248027 0.22794418 0.61309665
0.23672682 -0.045357965 0.1383696 -0.35008556 -0.28576556 -0.1796878 -0.3890921 0.19856873
-0.31663555 -0.2628066 0.13499734 -0.12786756 0.09958114 -0.18073578 -0.24997953 -0.6527943
0.041931145 -0.29935163 0.4937049 -0.16377833 0.33795816 -0.28146255 -0.100491025 -0.13174991

module.layer2.1.bn1.weight f4 [8]
00000000: 4891 6a3f 0928 623f c0d6 713f 2747 7f3f
00000010: 6ad8 813f 4d38 863f 8342 683f 2367 623f
0.9162793 0.8834234 0.9446831 0.99717945 1.0144169 1.0485932 0.9072649 0.88438624

module.layer2.1.bn1.bias f4 [8]
00000000: a124 a83d c1f6 373e 599a 8e3e 9db9 8b3e
00000010: 8946 c33e 15f0 943e 7685 d33e ee53 fd3e
0.082101114 0.17965223 0.27852133 0.2729005 0.38139752 0.29089418 0.4131276 0.49478096

module.layer2.1.bn1.running_mean f4 [8]
00000000: 115c a3bc 5a49 5c3f cda9 9f3e 39ee b5bd
00000010: 5970 7e3e 2805 66be 6112 0ebe e535 ed3e
-0.019941362 0.86049426 0.31184235 -0.08883328 0.24847545 -0.22462904 -0.13874198 0.4633018

module.layer2.1.bn1.running_var f4 [8]
00000000: c0fc 463f 49c8 d93e 3ade ac3e 3ab6 ac3e
00000010: 5cfd 0f3f 4d75 063f 2c2c ab3e 0e94 b53e
0.77729416 0.42535618 0.33763295 0.33732778 0.5624597 0.52522737 0.33432138 0.3546452

module.layer2.1.conv1.weight f4 [8, 8, 3, 3]
00000000: 4d79 e2bd 99db 52bc 2953 d5ba c7b6 dbbc
00000010: b72c 0a3e d35b b83d 2255 223c 64fa dfbd
00000020: f001 813d 6055 713d b77a 423d ab55 b63d
00000030: d1ca 01bd 7a2f 3ebe 6c6c ebbb b9d3 c4bd
00000040: dd05 443d a7a8 fdba c4e5 c03c eaa7 c73d
00000050: 99e1 0ebd a02d 0abd 3e0b 263e b994 acbd
00000060: 4dc4 df3d d497 ca3c 0405 a7bd 41c9 30bc
00000070: 7416 c33d 866e 293d ca8f cf3c 3c51 043e
00000080: 68ee e13d 81b3 08bd ed9a 79bd a583 cbbd
00000090: ab30 0b3d 3175 01bd 8c1c 00be bfa6 5e3d
000000a0: 6977 a43d 7306 35be a76a 113e edf6 413d
000000b0: c362 a4bc e72f b8bd 9c1a 2c3d bc2f 323d
000000c0: 6ba7 d1bd 52f8 623d 9043 ea3d ddd2 00be
000000d0: 6238 49bd 3beb f1bc bf3c 10bd 46c9 f33c
000000e0: 75e4 f73c d274 48bd 6d14 2fbd fdec 813c
000000f0: fb6f 9cbd 613f d6bd 5686 52bc 85c2 cebc
00000100: 0f0e b23d 2213 80bd ce8f 32bd b3f8 e03d
00000110: 1b36 b83d 95a8 b6bc b737 c4bd 5165 9d3d
00000120: 857e 38bd 9dab 023d 2eda 02bb c97a fb3d
00000130: e6be b73b 6e98 adbd bc38 45bd cd90 b13d
00000140: d0a6 56bd b260 0e3c f137 20be 8bac 8cbc
00000150: a6cc 103d 9b81 1cbe 852f 1abe 932a 2c3e
00000160: 3ced 3ebc 0bff 2ebd 794f a53c 6d1f a03d
00000170: ec8f 61bd 8b82 a23c d657 83bd 2591 c9bc
00000180: 34eb 553d c3e4 f6bd 13b3 11bd 8341 463d
00000190: 0c0a 0b3c f65a 62bd 0d56 02be 53d4 723d
000001a0: 1093 2abe 7ff4 413c 467b 743d 9f2b ed3d
000001b0: 9f6a 80bc 96cd febc f6c6 b43d 8712 7d3c
000001c0: 376a cfbc 1daf d13c d369 56bd 7234 19bd
000001d0: d228 643d 91e0 703d 05df 343c 56be d73d
000001e0: ef7a c0bd 7a8d 11be a3bb 383e 5257 2f3d
000001f0: 40f3 0e3c d007 c63c 88e0 37ba 827e 82bd
00000200: b1bf 0bbe 0505 33bc eb95 97bd ced1 0fbe
00000210: 0fdb 17bb f182 57bd a2f5 72bd 5a53 e33c
00000220: 6ce3 003c a682 f7bd 19c6 a33c fff0 51bc
00000230: 1e4d 40be ab6c 593c 0c4b bf3b 91c7 00be
00000240: 46ad 543b ca0d a73d 1555 253d 8e7a 1c3e
00000250: ee82 44bc 60fa 16be c784 20bc c837 cb3c
00000260: 0b20 98bc 8a0e cc3c ae0d 853c 9523 fd3b
00000270: 6a89 4abb d53b d03c 12bf 113d be92 07bd
00000280: 3321 853c b924 853d 76fb cd3c 8514 58bd
00000290: 3a09 93bd 5297 b43c 1e24 8ab8 6163 353c
000002a0: 9229 173d 9618 b5bc ff48 5fbd 4e49 12bd
000002b0: 1774 593d 64b5 0d3d 2f0c eebc d55b a03c
000002c0: 136e 20bd 2d1e 01ba a94e 8e3b ba3c 2a3d
000002d0: f7ff acbd 38db 2d3d 62c8 c13d 2624 2b3e
000002e0: a8c8 613e 7f4b 20bc f8ac 1cbe a0ab d8bd
000002f0: 2697 26bd c7b1 5bbd ea51 463d 235f 66bd
00000300: 3f1a 8c3c c25b f13d b4d9 0a3c 4794 a7bd
00000310: fc3b 843d 4784 dabd 7e0c 87bd 6683 2bbd
00000320: 1bf7 80bd 2a12 2fbc c13f abbd 19c5 95bd
00000330: 13f1 a03d b6ee c23d 60b5 dc3c 0fd3 bf3c
00000340: 089d 003e 0b8e 3cbc cf9a a0bd 16c3 e73a
00000350: 2899 07be 23ee 213d dfad 13bd 13f9 87bd
00000360: 4cce 1d3d df37 9bbd 9ab0 83bd 3e6f 23bd
00000370: 9eda 263e 51db db3b c5f5 94bd f37c ddbd
00000380: e529 a03d 7358 32bd 4379 00be 108b 76bd
00000390: dcef da3b b367 023e 1295 963c 4f72 c4bc
000003a0: 1ed3 b1bc 2709 9abc e84e 1f3c 6dde c5bc
000003b0: fead 15bd 6881 0a3d df3e 753c b5c5 623d
000003c0: 43ca 7ebc 262f bd3d 3c1d 22bd 0a6c 96bd
000003d0: c336 06be d36a ea3c 1cc3 0a3e 8741 3d3e
000003e0: 5ed1 0db9 205c 4fbd dca0 e9bc 5fb8 753c
000003f0: d77d 8bbd d68d 50bb 21f6 2b3d ec4b c73d
-0.110582925 -0.012869739 -0.0016275394 -0.026820553 0.1349362 0.09001889 0.009907993 -0.1093643
0.06299198 0.05891931 0.04748031 0.089030586 -0.03168756 -0.18572798 -0.0071845558 -0.096106954
0.047857154 -0.001935263 0.02354706 0.09748824 -0.034883115 -0.033734918 0.16215226 -0.08426804
0.10926113 0.0247306 -0.081552535 -0.01079017 0.09525767 0.04136517 0.025337119 0.12921613
0.110318005 -0.033374313 -0.060938764 -0.099372186 0.03398196 -0.031605903 -0.1251089 0.05435824
0.08030588 -0.17678241 0.14200841 0.047354627 -0.020066625 -0.08993512 0.042017564 0.043502554
-0.102370106 0.055412598 0.11438668 -0.12580438 -0.049126036 -0.029531112 -0.035214182 0.02975906
0.030260304 -0.048939534 -0.04274409 0.015860075 -0.07638546 -0.10461307 -0.012849411 -0.025239239
0.08694088 -0.06253649 -0.043594174 0.109849356 0.08994695 -0.022297183 -0.09580939 0.0768534
-0.045042533 0.031901944 -0.001996647 0.12279279 0.0056074737 -0.08476339 -0.04814981 0.08670197
-0.05240518 0.008690046 -0.1564634 -0.017172119 0.035351418 -0.15283816 -0.1505719 0.16813116
-0.011653241 -0.042723697 0.020179497 0.07818494 -0.055068895 0.019837638 -0.06413238 -0.024605343
0.05222626 -0.120553516 -0.03557117 0.04840232 0.008486282 -0.05526253 -0.12728138 0.05928452
-0.16657662 0.011838078 0.059687875 0.11580586 -0.01567584 -0.03110389 0.08827011 0.015446312
-0.025319202 0.025596196 -0.052347016 -0.03740353 0.05570299 0.058807913 0.0110395 0.105343506
-0.09398448 -0.14214125 0.18040328 0.042807885 0.0087249875 0.024173647 -0.0007014354 -0.06371786
-0.13647343 -0.01092649 -0.074016415 -0.14044878 -0.002317134 -0.05261511 -0.059316285 0.027749706
0.007866722 -0.12085466 0.019991921 -0.012813806 -0.18779418 0.013270537 0.0058378037 -0.12576129
0.0032451912 0.08156927 0.040364344 0.15281126 -0.011994107 -0.14743948 -0.009797282 0.024806872
-0.018569967 0.024909277 0.016241875 0.007725189 -0.003090466 0.025419155 0.03558261 -0.03309893
0.016251182 0.06501145 0.02514432 -0.052753944 -0.07179494 0.022044811 -6.58708e-05 0.011071057
0.03690488 -0.02210645 -0.054512974 -0.03571444 0.053089228 0.034596816 -0.029058544 0.019575039
-0.039167475 -0.0004925456 0.004342873 0.04156182 -0.08447259 0.04244539 0.09462048 0.16713008
0.220492 -0.009783625 -0.15300357 -0.1057961 -0.04067149 -0.05363634 0.048417963 -0.056243073
0.017102359 0.117850795 0.008474756 -0.081825785 0.064567536 -0.10669761 -0.065941796 -0.04187336
-0.06297132 -0.010685483 -0.083617695 -0.07312984 0.07858481 0.09518187 0.026941955 0.02341607
0.12559903 -0.011508475 -0.078420274 0.0017682042 -0.13242018 0.039533745 -0.03605449 -0.06639304
0.03852682 -0.07579016 -0.064301684 -0.03990101 0.16294333 0.006709494 -0.07273439 -0.10814848
0.07820491 -0.043541383 -0.12546258 -0.060191214 0.0066814255 0.1273487 0.01838163 -0.023980288
-0.021707114 -0.018803192 0.009723403 -0.024153912 -0.036542885 0.033814818 0.014968603 0.05536433
-0.015551153 0.092375085 -0.03957866 -0.073448256 -0.13106827 0.02861539 0.13550991 0.18482028
-0.00013524803 -0.050624967 -0.028519087 0.014997571 -0.068111114 -0.0031822822 0.041982774 0.09731278

module.layer2.1.bn2.weight f4 [8]
00000000: dbd5 773f 2d9e 783f 5bf6 633f 316b 7b3f
00000010: 4276 7b3f 77d6 6a3f 3948 733f 356c 793f
0.9681069 0.9711636 0.89047784 0.98210436 0.9822732 0.917335 0.9503208 0.97430736

module.layer2.1.bn2.bias f4 [8]
00000000: 780c 623b 9143 e13d deca 393d 57fd 85bd
00000010: 939a 0a3d f58b 693e d765 d13d b141 223e
0.0034492295 0.109992154 0.045359485 -0.06542461 0.03383882 0.22807296 0.102245025 0.15845372

module.layer2.1.bn2.running_mean f4 [8]
00000000: 5abe 873d 33da 24bf 5054 15bc 636c ecbd
00000010: 1143 98bd f2f5 633e a401 fcbb 24e8 333e
0.066281036 -0.64395446 -0.00911434 -0.115441106 -0.07434667 0.2226179 -0.0076906253 0.17569023

module.layer2.1.bn2.running_var f4 [8]
00000000: 01fe 553e a0eb 713e 0f25 c53d a39b 6b3e
00000010: bb16 2e3e d087 d33d 36d5 4d3e 3c70 ad3e
0.20897676 0.2362504 0.09626209 0.2300859 0.17000858 0.103286386 0.20100865 0.3387469

module.layer2.1.conv2.weight f4 [8, 8, 3, 3]
00000000: 041b 1c3e 028a a13d c71c cfbc 7f1a 583e
00000010: 70c6 113e 43f5 84bd 675a 423d ac2d e13d
00000020: 7d78 143e 9871 bc3c c546 7a3d c9e4 fa3d
00000030: 8897 123e 9f67 b33d fe59 ad3d e492 97bd
00000040: 3cde a33d b41d 003e d8cd b4bd 552d b7bb
00000050: 0d45 9a3d 727a 98bd e477 acbc 121b 3d3d
00000060: 9551 cfbd bbb3 24bd 864b e23d 7e1b 8b3d
00000070: 1472 0d3d 3378 b1bc 8fbc 92bd 4bfc 72be
00000080: e95a bbbc 5a14 c63c 6aa7 7bbd 2516 7dbd
00000090: 117e e73c 6f2a 983d 24b9 953c 4112 03bc
000000a0: 83d2 af3c abd5 de3c 6a41 0fbc cb3d 863d
000000b0: 5c0e 223d d2bf f8bc aae5 163d 8b9b 14bd
000000c0: c587 babd 4579 aabc 232f 813d bdac e4bd
000000d0: cf87 a3bd 7430 693d 3e6e 503c 96bf 0f3e
000000e0: abce 513d aa68 913b 5a11 a13d 0974 e33c
000000f0: 7221 d03d b941 923c 24d6 9c3d 58af 5a3d
00000100: b06f 0dbd c780 a3bd 4eae 39bc 399a 8bbc
00000110: cbf7 9b3c 61ba 773d b3ce 7c3d afc6 4e3d
00000120: 5452 1a3c 183a c23c 6414 7ebc 49ea 8fbd
00000130: 01c6 b53d f0f2 af3d 2500 d73c f2d4 53bd
00000140: fdd8 00bd 6de8 3dbc 9472 dfbc 9b7d 30bd
00000150: a489 3dbd ab9c 843d 98f2 043e aea8 783d
00000160: f769 bfbd 5d60 54b9 e68a aa3c 17e1 83bd
00000170: 7446 5ebc d511 18bd 2281 083e 3d30 e13b
00000180: fda1 a2bd d94c dabc e11e 55bd 8a65 01bc
00000190: c30b a4bd 36c6 863c d522 69bd 0871 38bd
000001a0: 5911 96bc 1d39 f73c 3c1b 7dbd 9d44 943d
000001b0: bbc1 80bd 5414 013c 1e5e 903c 530f 543d
000001c0: 9271 ee3c 6742 e6bd e5b4 acbc 78de 2ebd
000001d0: ca0f 0f3c f917 243d 85eb 663a f1ad e5bd
000001e0: be3d d2bc 4305 753c 9a00 333c 757d bbbc
000001f0: 4ba4 a93d 335d 863b 536b 70bc a518 d8bd
00000200: 4abf d13c 0237 34bd 73a1 ef3c 921a b1bc
00000210: 2325 603c e7e6 813c 89b7 54bc 2b16 3ebc
00000220: b1ba 4dbd d6a1 3dbd 38bc 2ebd ce74 c3bd
00000230: ac3b 93bd dd07 22bc 4333 edbd 7885 51bd
00000240: a58a 003c 84be d23d 8ed0 f63d a64c 963d
00000250: 73e6 df3d 3962 2f3d 8591 ac3d 1b71 8fbd
00000260: 9c31 0c3c 7baf 4f3d 852d 15bd e869 7fbd
00000270: 7057 4cbc 6a1c ab3d 49a3 96bb 1042 243d
00000280: 5db1 663c 7eef 883c dacd e0bc b81f 803d
00000290: b161 8e3c 6308 57bb a346 7e3d ce48 01bd
000002a0: 2763 be3d ca56 d33c f8c7 20bd cfe1 4f3d
000002b0: ad9f e6bd 1814 f0bc 9705 653c a798 67bd
000002c0: 1ac2 30bd 8231 97bd 0507 d6bd 3985 f6bc
000002d0: eb64 18be 22f1 e8bd aa69 c3bd 2fb2 57bd
000002e0: e569 5bbe 080c bdbd c8d3 bf3d 6d71 94bd
000002f0: 6d21 9ebd 4fb1 c33c bd75 a2bd af59 95bd
00000300: 5f2d 613d d0d4 8b3d 8e3b e5bd f34e 0cbb
00000310: 5bed d93c d65a 2abd c0fd 05bb 32f1 98bd
00000320: d0c8 37bd c904 343c 80fb e5bd 84f2 92bc
00000330: a0ce d0bd bc63 4fbd 33eb 82bd 12a6 d4bd
00000340: b6c4 28be 24ad 50bd afe8 8fbd 6f74 07be
00000350: 4be3 f73b 3a14 3bbc 9d53 92bd 0f7d 0dbd
00000360: bcef 823d 69d4 9a3d b8fd 23bd 0322 b73c
00000370: 37cb b13a 305a 683d d45d 5e3d ff61 003d
00000380: 1311 553d 310f 23bd 8271 293c 0b83 79bd
00000390: cb5c d53d b048 5c3d dc07 e53d 3a37 a63c
000003a0: d654 a73d bf2c 9bbd 52ab 4ebc 04c1 0dbd
000003b0: 4490 12bd f57a ef3d 5531 8d3c bcd4 2bbd
000003c0: 088d 923d 6241 ea3c 90f3 013d 745e b2bc
000003d0: 70d1 f23c 71df 593c 4376 e3bc f260 7b3d
000003e0: dff0 5c3d b029 b53d 90f8 3a3d 3f02 843d
000003f0: aa96 043d 362e 9bbc 2474 dbbb 00a0 583d
0.1524468 0.07887651 -0.025282277 0.21103857 0.14235854 -0.064920925 0.047449496 0.10995039
0.14499088 0.023003384 0.061102647 0.122506686 0.14315617 0.087599985 0.0846443 -0.07401064
0.08001372 0.12511331 -0.08828324 -0.005590121 0.07532702 -0.074452296 -0.021053262 0.046168394
-0.101229824 -0.040210467 0.11049561 0.06792353 0.03453262 -0.02166376 -0.07164871 -0.23729055
-0.022870498 0.024179626 -0.061438955 -0.061788697 0.028258355 0.074299686 0.018276758 -0.007999958
0.021462684 0.027201494 -0.008743623 0.06554755 0.039564475 -0.030364905 0.03684012 -0.03628115
-0.09107927 -0.020809779 0.06307819 -0.1116576 -0.07984888 0.056930974 0.012721596 0.14037928
0.051222485 0.0044375258 0.07864638 0.02776529 0.10162629 0.017853605 0.076580316 0.053389877
-0.03453034 -0.07983547 -0.011333061 -0.017041313 0.019039055 0.06048048 0.06172056 0.05048245
0.009419043 0.023709342 -0.015507791 -0.07027108 0.08875657 0.085912585 0.026245186 -0.051716752
-0.031456936 -0.011591059 -0.027276315 -0.043088537 -0.046273842 0.064751945 0.12983167 0.06070774
-0.09346383 -0.00020253794 0.020818185 -0.06439417 -0.013566602 -0.03712638 0.1333051 0.0068722055
-0.07941053 -0.026647972 -0.0520314 -0.007897744 -0.08010056 0.016451936 -0.056917984 -0.04502967
-0.018318819 0.0301786 -0.06179355 0.072396494 -0.06286951 0.007878382 0.017623004 0.051772427
0.029106889 -0.11243134 -0.021082351 -0.04269263 0.008731792 0.040061925 0.0008808899 -0.11214817
-0.025664207 0.014954868 0.010925436 -0.022886971 0.082832895 0.0041004657 -0.014674026 -0.105515756
0.025603909 -0.043997772 0.02925179 -0.021619115 0.013680729 0.015857173 -0.012983211 -0.011601965
-0.05022687 -0.046296917 -0.04265997 -0.09543763 -0.07189116 -0.00988957 -0.11582043 -0.051152676
0.007845555 0.10290244 0.120514974 0.07338838 0.109326266 0.04281828 0.08426193 -0.07003995
0.00855675 0.05070446 -0.036420364 -0.06235686 -0.012472019 0.08355029 -0.004597102 0.040102065
0.014080373 0.016715761 -0.027441908 0.0625605 0.017380567 -0.0032811395 0.062079083 -0.031563573
0.092962556 0.02579822 -0.039253205 0.050752457 -0.112609245 -0.029306456 0.0139783835 -0.056542065
-0.04315386 -0.0738249 -0.104505576 -0.030092822 -0.14882247 -0.113741174 -0.09541638 -0.052660163
-0.21427114 -0.092308104 0.09366566 -0.07248197 -0.07721219 0.023888258 -0.07932613 -0.072924964
0.05497491 0.068277 -0.11193 -0.0021409362 0.026602438 -0.041590534 -0.0020445436 -0.07467879
-0.044869244 0.010987469 -0.112296104 -0.017937906 -0.101956606 -0.050632223 -0.06392517 -0.10383238
-0.1648129 -0.05094637 -0.07026803 -0.1322801 0.007564937 -0.011418397 -0.07144854 -0.034543093
0.06393382 0.07560045 -0.040036887 0.022355085 0.0013564591 0.056726635 0.0542887 0.031343456
0.052018236 -0.03980941 0.010342004 -0.060915988 0.104180895 0.053780258 0.1118314 0.020290006
0.08170478 -0.07576894 -0.012614088 -0.034607902 -0.035782114 0.11693374 0.017235437 -0.041950926
0.07155806 0.02859563 0.03172642 -0.021773554 0.029640883 0.0132979015 -0.027766353 0.06137175
0.05394065 0.08845842 0.045647204 0.06445741 0.032370247 -0.018942934 -0.0066971947 0.052886963

module.layer3.0.bn1.weight f4 [8]
00000000: 7889 5f3f c0a7 653f 6036 3f3f ceeb 703f
00000010: 4cde 483f 2d61 433f f06e 313f 9882 503f
0.87319136 0.8970909 0.74692345 0.9410981 0.784642 0.76320153 0.693099 0.8144927

module.layer3.0.bn1.bias f4 [8]
00000000: 328d 903e 4c24 2b3e 9136 e63e 27e9 b83e
00000010: d57f ef3e 9f3e 3c3e 3afd 803e 9dc5 043f
0.28232723 0.16713065 0.44963506 0.3611538 0.46777216 0.18383263 0.25193197 0.51864034

module.layer3.0.bn1.running_mean f4 [8]
00000000: af0d 1e3f 3533 083f eefa 95be 7758 8a3e
00000010: c53c 9c3e 44d2 263d 34b2 db3e 088c 003f
0.6173963 0.53203136 -0.29293007 0.27020618 0.30515113 0.04072787 0.42909396 0.5021367

module.layer3.0.bn1.running_var f4 [8]
00000000: e78b 883f 914c e33e 7bcd f83e cdd6 4e3f
00000010: bc1d 183f 2019 1d3f 07ed 143f 857d f33e
1.0667695 0.44394353 0.4859427 0.8079651 0.5942037 0.6136646 0.58174175 0.475567
